RottenApple.pt (torch, 74703 bytes, 8 tensors)

conv1.weight f4 [16, 3, 3, 3]
00000000: 2671 e13d 5b92 563e 511f 213e f9e9 903c
00000010: 8b61 f73d e53a 1a3e 59c8 953b c5a7 1d3e
00000020: 61f1 0d3d 7aff 44be 4e21 403d 6c6a 4d3d
00000030: f06f e7bd 1ceb 43be 83a9 c6bd 94cd 2bbe
00000040: 89be fe3b f296 44bd 7eba 023e 0510 adbd
00000050: 22a9 c2bd e99a c1bd df6d d63d d1cc 73bd
00000060: 2f19 b4bd 2e01 033e 9b3b 0abe 39d7 76bd
00000070: aa00 b63d 7ba2 2d3d 6348 04be 8bcf 5bbe
00000080: 5906 47bd 9a2e c13d 0be8 76bd cabc 3b3e
00000090: 8fa1 a33d e32b c53d ca68 d73c 189a 11bd
000000a0: e02a 1abe f085 d3bd ffb7 3ebd 79a4 833d
000000b0: cd7d cb3c 6e69 cd3d dd73 a1bd 936e 933d
000000c0: 0694 003e 2f7f c63d 2fbd 103e 1bc7 913b
000000d0: 8a4e 38be aa0a d33d 74de b9bb e959 26be
000000e0: 3ded 253e bc6c 65be f780 28be ea34 abbd
000000f0: a85a 85be b883 d6bd c0ff 743e d992 9e3d
00000100: 0a8a f1bd 29a7 093e 102c 483e fe9c ab3d
00000110: 18e0 6b3d 9646 9e3d 6152 063e c320 f93d
00000120: b8d2 76bc 0e8b b6bd 9ed3 453e cb1d 19be
00000130: 2e3d 2fbe e47a 40be 915e 963d c24e 67bd
00000140: 4878 193e 3e47 8a3d 61d5 883d e796 333e
00000150: 0ddf 99be 0e4f 1d3d d147 533e 56bf 0fbe
00000160: 7793 db3d 2332 773e c1be 5f3e 8237 1d3c
00000170: cf38 633e 23d9 14bd c5d9 1dbe bfec b73d
00000180: 02be 1dbe 70a5 8d3d 4f30 b93d b84e 9e3d
00000190: b268 5cbe ea5d 103e 473d 7bbe 9f86 48bd
000001a0: 75d6 3fbe 3b2f 253d bcac 3bbd 4ee2 223d
000001b0: d200 75be f004 4b3d b8a4 8cbe 7985 16be
000001c0: fe8a 513e 1b0e a5be 028d 973d 1632 59be
000001d0: ba8b 653b 48d8 473e 8f8e 883d ecb4 883d
000001e0: 0921 4abe 5520 5e3e a487 02be 2657 543e
000001f0: 4fd5 413e ae2f 18bd 5d19 06be 6c7c 3abd
00000200: 3256 c0bd d7e0 153d 1269 2a3e e29d 6dbe
00000210: ddf0 eb3d baf6 cbbb aae5 213d 3fb3 ffbd
00000220: a301 0dbc f50e 2b3e 0833 a03d 6409 0fbe
00000230: 4026 76bd 2289 cb3d 9dfd e83d 5c2d 22be
00000240: 2946 44be a9d5 6cbe e6cf 72be e1b9 a4bc
00000250: 299f c03d bb20 17be 8fb8 86bd 9314 fb3d
00000260: 437f 2c3c 9250 2ebe caef 093e ff3d a3bd
00000270: 7617 23be 884f 0b3e aa58 4dbd 104c 2a3e
00000280: 3cbd 1cbd 50c1 473a b59a c9bd ab2e 433e
00000290: cc71 aebd d638 1cbe 3361 0ebe d858 63be
000002a0: 5d6f a53d 1c78 edba 320a f3bd b81a d0bd
000002b0: dd8e 843e 9d7e 76bd c74a 143e 9c44 723e
000002c0: 6cb5 2bbd 002f 313d b97f c33d a716 3abb
000002d0: 3cf9 d53d 88a7 cfbd 02c5 0fbe aecf 55be
000002e0: b6f1 1e3e 7c30 8a3c 9de0 81bd 733d 44be
000002f0: e235 083d 390b 713e 0d88 50be db42 dd3c
00000300: 750a 93bd 936e 293e 071c d3bd 3bd7 65be
00000310: c9e4 75be 0548 5f3e 0191 c43d 8a99 90bd
00000320: f547 123d 1a1a 4f3e d4c1 723d d54d 60bd
00000330: eaa5 02be 82f3 4dbd b5f8 4f3e 0e6d 4d3d
00000340: c770 353d 40ed ea3c 59e3 49be 26c2 1a3d
00000350: 2593 50bd 7941 143e 24e5 49bc 51ae d23c
00000360: c32a ef3d 551c 513b 1896 1a3e 186e c4bc
00000370: 26f2 f3bd 3920 1abe fd6b 013e 88b7 fd3d
00000380: cf41 633e 5601 0bbe 194a 13be c636 cc3d
00000390: bf52 43be d6bf 293d bc0c 063a 0f86 0f3e
000003a0: b18e c63b 0252 283d 40fd 3f3d c9ef acbd
000003b0: bc6a 64bd 2b39 073e 1e63 33be a8b5 afbd
000003c0: fcc2 3f3e f22d fcbd 6003 ea3d df3d 41be
000003d0: 0e06 f23d c846 9b3b e9c2 c93d 4600 c1bd
000003e0: d4d4 44be ce6c aa3d e5b4 443d 26e0 233e
000003f0: 61ab 3c3d e4e5 623e 6a27 89bd 31ea 483d
0.110079095 0.20954268 0.15734603 0.017689692 0.12079152 0.15061529 0.0045710024 0.1539603
0.034654025 -0.19238082 0.04690676 0.05015032 -0.11300647 -0.19132656 -0.097003005 -0.1677764
0.0077741784 -0.047995515 0.12766454 -0.08450321 -0.09504916 -0.09453375 0.10470175 -0.0595215
-0.08793866 0.12793419 -0.134993 -0.060263846 0.088868454 0.04239128 -0.12918238 -0.2146589
-0.048590038 0.09432717 -0.060279887 0.18333736 0.07989799 0.09627511 0.026295085 -0.035547346
-0.15055418 -0.10328281 -0.04656219 0.06427855 0.02484026 0.10029875 -0.07883427 0.07198825
0.12556466 0.09692227 0.14134668 0.004448784 -0.1799871 0.103047684 -0.0056722704 -0.16245236
0.1620378 -0.2240476 -0.16455446 -0.08359702 -0.26045728 -0.10474342 0.23925686 0.07742853
-0.11793907 0.13442673 0.19548059 0.08379553 0.05758676 0.07728307 0.13117363 0.12164452
-0.015064888 -0.08913241 0.19319007 -0.14952771 -0.17113182 -0.18796879 0.07342256 -0.056471594
0.1498729 0.067518696 0.06681324 0.17538033 -0.30052987 0.03840547 0.20632865 -0.14037833
0.10721486 0.2414022 0.2185011 0.009595754 0.2218964 -0.03633989 -0.15415104 0.089807026
-0.15404513 0.0691632 0.09042417 0.07729858 -0.21524313 0.14098325 -0.24535094 -0.04895651
-0.18734153 0.040328246 -0.04581903 0.039766602 -0.23926094 0.049565256 -0.2746942 -0.14699353
0.20463178 -0.32237324 0.07399942 -0.21210513 0.003502591 0.19516098 0.06667816 0.06675133
-0.19739164 0.21692021 -0.12747055 0.2073637 0.18929027 -0.037154846 -0.13095613 -0.045528814
-0.093914405 0.036591377 0.16641644 -0.23204759 0.115205504 -0.0062244805 0.039525665 -0.1248536
-0.008606347 0.16704924 0.078222334 -0.13968426 -0.06009507 0.099382654 0.11376498 -0.15837616
-0.19167389 -0.2312838 -0.2371212 -0.020108165 0.094053574 -0.1475858 -0.065781705 0.122597836
0.010528388 -0.17022923 0.13470379 -0.07970809 -0.15926918 0.13604558 -0.050133385 0.16630578
-0.038266405 0.00076200534 -0.09843961 0.19060771 -0.08517799 -0.15256056 -0.13904266 -0.2220186
0.080778815 -0.001811746 -0.11867179 -0.10161346 0.25890246 -0.06017934 0.1448165 0.23658985
-0.041921064 0.043257713 0.095458455 -0.002839485 0.10447928 -0.10139376 -0.14039996 -0.20880005
0.15521893 0.016868822 -0.0634167 -0.19164066 0.03325451 0.23539437 -0.20364399 0.027009418
-0.07179729 0.16546087 -0.1030808 -0.22445385 -0.24013056 0.21804817 0.0959797 -0.07060535
0.035713155 0.202248 0.05926688 -0.054761726 -0.12758604 -0.050281055 0.20309718 0.05015283
0.044297006 0.028677583 -0.19715632 0.03778281 -0.050921578 0.14478101 -0.012322698 0.025717886
0.11678078 0.0031907756 0.15096319 -0.023978278 -0.119114205 -0.15051354 0.1263885 0.123885214
0.22193073 -0.13574728 -0.14383735 0.09971385 -0.19074534 0.041442715 0.0005113592 0.14015983
0.0060594906 0.041093834 0.046872377 -0.08444173 -0.055765852 0.13205402 -0.17518279 -0.0857957
0.18726724 -0.12313451 0.11426425 -0.18871258 0.11817561 0.0047386624 0.09851629 -0.0942388
-0.19221812 0.08321534 0.048024077 0.16003475 0.046061877 0.22158009 -0.06696971 0.049051467

conv1.bias f4 [16]
00000000: 8ec3 033e 516a 26be 2b5d 193e f1c0 1ebe
00000010: f7bd 4abe 1d0f 43bc 03b9 38be 7feb 00be
00000020: 8ca8 b0bd 02a3 403e 1cc1 3abe f4a1 d43d
00000030: 11c8 873b ad0a c73d a9b1 4e3e c67d 373e
0.12867567 -0.16251494 0.14976947 -0.15503289 -0.19799028 -0.011905459 -0.18039326 -0.12589835
-0.08625898 0.18812183 -0.18237728 0.103824526 0.004143723 0.09718833 0.2018496 0.17919073

conv2.weight f4 [8, 16, 3, 3]
00000000: 60b0 29bd a1ba f83c b96f 9ebd 9a3c efba
00000010: b237 09bb c352 283c 1d19 27bd 5920 03be
00000020: da0a 6ebd b29c 42bd 77f2 05bc 1bce 0bbe
00000030: 54de 0a3d 109d d9bb a0b3 ebbd 1ba5 433d
00000040: b78f 313d 425f 4c3c 77a1 a93d 74c9 36bd
00000050: 5326 b3bd fb72 9c3d 2c5e ca3c 2582 babd
00000060: 2e67 0dbd 39c7 4c3d 2c17 a6bd 7df4 5bbb
00000070: cdf2 52bd c96e 2cbd 2f52 55bc 03b6 9fbd
00000080: 1e34 a6bc b190 b73d 4b88 cf3b d3c0 a4bd
00000090: c266 983d 1a80 383c 46b8 033d 4f67 943d
000000a0: 5509 003e 3dd9 50bd 1a9c 94bd 13be bf3c
000000b0: bd12 cabc d5ca e03d 049b d03d f31c db3d
000000c0: 641e a03d 0441 8c3d 7408 d23c 2c61 803d
000000d0: 36a0 a33c 7c13 113c 8745 4b3d eafa 78bd
000000e0: 2834 84bc 5472 c0bb 4490 673d 01d6 96bd
000000f0: c06d 2bbd 2ea6 103d 2edb 54bc 345c c03a
00000100: 10ce a1bd 2030 5abd b42d 1dbb a888 a23c
00000110: b923 e63c 849e 9bbd 8c86 96bd 8bdd 53bd
00000120: 33b2 17bd 4849 dc3c f8e8 113d 7e21 82bd
00000130: 82c1 d4bc 1f52 213d 38cf e7bd 45a9 0abd
00000140: 83cf 94bd 77c0 18bc 0512 9f3d 1df4 fdbc
00000150: ee35 b0bc 321b 693d b6f0 863d 93a3 7bbd
00000160: 4bee a73c b55f adbd 9ad5 fb3d f338 623d
00000170: b917 9e3d 6790 be3a de5e b5bd 7a9a 283c
00000180: cb6c a2bd a5dd 9ebd 6cc7 69bc a49f 1ebd
00000190: 35eb 12bd c97c babd c7fe 243e d226 b03d
000001a0: 85e8 cc3d 358a ad3d 68d7 303e 5e06 6a3c
000001b0: c97f 2e3d 19c6 d9ba 4e66 0a3d 29c3 c1bd
000001c0: fbd0 08bc 2816 c0bd a137 c1bd 21ea e1bd
000001d0: 1180 e4bc 6fde 2c3e b894 b43d c4ea 223c
000001e0: 1b4d 693d 742d 19bd 1951 c53d 6530 f3bc
000001f0: 3b0c 983c 89c0 b23d 09bf 813d b93e 913d
00000200: 1ae5 5ebd 2995 383d f810 ad3d 248d 423d
00000210: bc83 883d 2c0c d03d 04c9 69bd db44 6a3d
00000220: 9a96 93bd f8e6 1abd 4759 07bb 53a7 8f3d
00000230: a841 683d f1aa 1bbd d270 54bd 0ee4 0cbd
00000240: d427 b23d 4ce9 063e 5165 6c3d 69ad 283e
00000250: c7a7 763d 3727 2d3d 9700 113e 3f38 093e
00000260: 30cb d23d cb71 27bd b7b9 b23d ded5 1abd
00000270: ef1d 25bd 3da6 863d fe1e b73d d60e ba3d
00000280: 9798 edbc 41d3 c6bc 0cd2 92bd cc9f b53b
00000290: ed52 2bbd b31c 7dbd 8d45 45bd 47ad 173c
000002a0: 3635 87bd 22e2 ca3d f639 133d d1b5 113d
000002b0: abfe 603d 0a18 7a3d fd7f 083c 4203 793c
000002c0: 27ea a43d 81f2 11bd c590 b13d 2869 44bd
000002d0: fee5 f9bd bd6b 093d 5f54 aabd 011e 09be
000002e0: 53e0 4fbc 72c0 afbd 25ba 65bd 0e17 55bd
000002f0: 053c bb3d 3be6 b63c d383 c23d 6399 8f3d
00000300: aeb5 623d 4f1b 773c 74ea e83d 9e60 9b3d
00000310: 1e08 913d cd3b 063e 43d8 a9bd 41f5 cabd
00000320: eae8 1dbd d117 a5bd e290 a2bd c6f5 98bd
00000330: d60e ebbc d4e5 2ebd c8e0 83bc c6dc 963d
00000340: 749d 2fbd 539b 80bd b531 9dbd c12c 36bd
00000350: 7f88 d1bb c24a ed3c 2216 413d 1c6d bb3d
00000360: e768 453d f63c bf3d b2f6 933d e416 db3c
00000370: 890d c3bc 7de2 ba3d 0d26 aa3b 2826 d6bc
00000380: 0a40 c03d c121 a33d 5e7f b1bd 4b4b 9fbd
00000390: 1f99 7fba 538d 363d edec 32bd 2892 6d3d
000003a0: 957a f6bc 3464 33bb 60a3 af3d bbb2 063e
000003b0: 569a 2c3b 9660 e93d 613a 8c3d 8a1d ce3d
000003c0: da3a 0e3e b0b0 233e 04b5 023e d049 4c3d
000003d0: 2409 cebc d159 41bd fbe6 f23a fe12 8fbd
000003e0: 501b 94bd a9eb 2dbd c3f1 653d 04dd 9f3c
000003f0: f545 413e 8f10 023d 7727 153e 11e0 813d
-0.04142797 0.03036243 -0.07736153 -0.0018252314 -0.0020937738 0.010273638 -0.040795434 -0.12805308
-0.058115818 -0.047512718 -0.008175484 -0.13652842 0.033903435 -0.0066410378 -0.1150887 0.04776488
0.043349948 0.012473883 0.0828275 -0.044625714 -0.08747544 0.07639118 0.024703108 -0.09106854
-0.034522228 0.04999468 -0.081098884 -0.0033562474 -0.051501084 -0.04209784 -0.013020082 -0.07798388
-0.020288523 0.089631446 0.006333386 -0.08044591 0.074414745 0.011261011 0.03215816 0.07246267
0.1250356 -0.050988425 -0.072563365 0.023406064 -0.024667138 0.10976187 0.10185817 0.10698881
0.078182966 0.06848338 0.025638796 0.06268534 0.019973855 0.008854743 0.049626853 -0.060786165
-0.016138151 -0.005873004 0.056534067 -0.07365037 -0.041852713 0.03531473 -0.01299171 0.0014675916
-0.079006314 -0.05326855 -0.002398354 0.019840553 0.028093206 -0.07598594 -0.073498815 -0.05172495
-0.03703518 0.026890412 0.035622567 -0.063540444 -0.025971178 0.039384957 -0.11318821 -0.033852834
-0.07266142 -0.009323231 0.07767109 -0.031000191 -0.02151009 0.0569107 0.06588881 -0.061435293
0.02049937 -0.0846552 0.12296601 0.055230092 0.077193685 0.0014538885 -0.08855985 0.010290736
-0.07930907 -0.07757119 -0.014268737 -0.038726464 -0.035868842 -0.09105832 0.16112815 0.086011544
0.10005287 0.084736265 0.17269671 0.014283745 0.042602334 -0.0016614824 0.03378897 -0.09461052
-0.008350606 -0.09379226 -0.094344385 -0.11030985 -0.027893098 0.16881727 0.08817428 0.009943668
0.0569583 -0.037396863 0.09634609 -0.029686162 0.01856052 0.087281294 0.06335265 0.070920415
-0.054417707 0.045064125 0.08450502 0.047497883 0.06665751 0.101585716 -0.05707647 0.057194572
-0.07206459 -0.037817925 -0.0020652579 0.070143364 0.05670324 -0.03800482 -0.051865406 -0.034397177
0.08699003 0.13174933 0.05771381 0.164724 0.0602186 0.042273726 0.14160381 0.13400362
0.10292661 -0.040880006 0.087268285 -0.037801616 -0.04031175 0.06574676 0.08941458 0.09084861
-0.029003425 -0.024270656 -0.071689695 0.005542731 -0.04182713 -0.061794948 -0.048162032 0.009257621
-0.06601946 0.09906413 0.035943948 0.035573784 0.05493037 0.06105808 0.008331296 0.015198531
0.080524735 -0.03563166 0.08670191 -0.047951847 -0.12202071 0.033550013 -0.08316874 -0.13390352
-0.01268776 -0.08581628 -0.056085724 -0.05202394 0.09142307 0.02232658 0.094978 0.07011678
0.055349045 0.0150821945 0.113728434 0.07586788 0.07081626 0.1310875 -0.08293202 -0.0991006
-0.038552202 -0.08061183 -0.079377905 -0.074687526 -0.028693598 -0.04269965 -0.016098395 0.07366328
-0.04287477 -0.06279626 -0.076754965 -0.044476274 -0.0063944454 0.028966311 0.047140248 0.0915167
0.048195746 0.09337799 0.07224788 0.026744314 -0.023810165 0.091252305 0.0051925243 -0.026141241
0.093872145 0.079654224 -0.086668715 -0.07778033 -0.0009750295 0.04456837 -0.04368298 0.058000714
-0.030087749 -0.0027372958 0.08576083 0.13154118 0.0026337109 0.113953754 0.068470724 0.10064228
0.13889638 0.1598537 0.12764364 0.04987508 -0.025150843 -0.047204796 0.0018531972 -0.06986044
-0.07231772 -0.04246107 0.056138765 0.019514568 0.18874343 0.031754073 0.14565836 0.063415654

conv2.bias f4 [8]
00000000: 232c c03c c936 cf3d e907 debd 7d13 79bd
00000010: 1ed2 b3bc e262 05be 937d 053d 9e5e 0d3c
0.023458546 0.10117871 -0.108413525 -0.0608096 -0.021950778 -0.13026002 0.03259046 0.0086285155

fc1.weight f4 [32, 512]
00000000: 191c 5a3c ffe8 0abd fc4a 9ebc 9c5a 02bd
00000010: 0d42 81bc 3f7b b5bc 7d57 ba3c 87de 363d
00000020: be55 9d3b 6794 813c 5ff3 ba3c 8d4b 5fbb
00000030: 803f 263c c6e4 a13b 2c98 163d c7a6 193d
00000040: 1061 143c a707 9abc 3af4 d83c 4125 5f3d
00000050: d2e7 1ebc 9447 ab3c 6b29 4f3c ccbf 1f3d
00000060: bac2 1d3d 7dbc 6a3d b2d3 6b3d 8ac5 5d3d
00000070: d407 663d fef8 893b 3db0 163c bd1c 88ba
00000080: 4f8f 5abc a995 adbc efcb 923d b027 823d
00000090: 9935 6a3d 1f9b 733c 5eb9 2f3d 8595 663c
000000a0: 2b41 703c 22d0 9a3c 82a7 423d 6b04 d8bc
000000b0: fe37 803c 8e6d 11bd b9b9 d83c c690 503d
000000c0: c831 5a3c 2272 373d d38a 743d fbcd b4bc
000000d0: 73b3 913c 182b 903c c1b1 1a3b 72d7 28bc
000000e0: 0749 3a3d 3374 813c 53f9 893d a02a 4f3d
000000f0: 1933 243c f0ab 2bbc 99b8 0e3d 66b8 42bc
00000100: 9c8c 45bc cc5b 7e3c 9ade 7a3c 9df9 e93c
00000110: a725 343c 1f01 55bd 3a0c d33c e1a9 923c
00000120: 717a 773c 4084 0e3d e49a 583c 6486 1bbd
00000130: 8bf2 47bd 777b b93b da5b 6e3c 10be 253d
00000140: 6b74 063d 0acd e63c 57ed 4ebd cda9 74bb
00000150: d863 08bd b57d 14bd 18ce 09bd 2250 1a3d
00000160: 3545 e33b 7c97 0abd 5c8c 70bd c5d0 5bbd
00000170: 9239 5dbc f71a 22bd feb5 6b3b 5449 01bd
00000180: 38c9 be3c e5bd aa3c 1f71 95bb a435 3bbd
00000190: d5bf 38bd 3ddf f9bb 4a5c 9c3c 4aec 053d
000001a0: 7815 26bd bad1 27bd 6618 8ebd c26e 59bd
000001b0: 1f34 97bd 0c8b 97bd 1f2b 55bd c002 32bc
000001c0: 5ceb c8bc 9ea2 fb3b 3711 bb3c 0b6f 6fbd
000001d0: 0662 0abd 56c7 09bd 8e74 4b3c ae81 bcbc
000001e0: d099 e63a 0dc5 823c 4bae 5ebc 8b8d 23bc
000001f0: b8aa e83c 7dd1 50bc 9868 7b3c 5a81 cebb
00000200: 8e74 7aba 8b61 3ebd 9836 f23c 7653 1e3d
00000210: b2be 843b 96ba 713c 9315 8bbb c843 10bc
00000220: de47 1abd 8dbe 01bd 4274 f9bc 2963 fdb9
00000230: f92f 81bc 3599 413d 6e3e 36bd 178e f2bc
00000240: efa0 9aba 2891 a33c 8ad6 713d c660 4f3d
00000250: de6e 403c 545c f63c 0aee c6bc 162f 1cbd
00000260: 4c45 7f3d cad2 d53c 4cd8 203c 20ce 5d3c
00000270: 9433 1b3d 8317 7d3d bfdb fe3c ad5a 943c
00000280: c3e7 b73c a8e6 9d3c 5909 0abd 4834 a8bc
00000290: bfcc 463d 9756 803d f5ff 293d 0489 12bd
000002a0: 7c04 0d3d 0879 3f3d b1d1 f0bc 9936 2e3d
000002b0: a908 81ba 4afd 8a3d faec 2a3d c734 3e3c
000002c0: 4a2d a93c f179 713c 17f8 963d de65 703d
000002d0: 6d5f 23bb 4c27 453d c76f 123d db87 c03b
000002e0: ce1b 443d 816e 663d 772c 0dbd 0976 6a3d
000002f0: eea2 3c3d 8d17 273d 1b32 b53c 9197 05bd
00000300: c8f7 46bc de66 93bc 7632 063d 8a46 053d
00000310: 657f 8bba 7689 acbc d05d 96bc 64d4 db3c
00000320: 6ad3 3abb 0918 913b e46b 903c 389f 0e3d
00000330: eeab 93ba cbe5 603d da36 6d3d 6952 173c
00000340: f679 8dbc 8a49 263d 0e4e c3bc 00fe 4fbd
00000350: e46a 32bd d6a5 edbc 6e72 233d 54b2 f3ba
00000360: be4b 26bb 9ec1 16bd eaee 583b 5f6d 5fbc
00000370: 70de 333c 4d45 e6bc b357 d1bc 41e2 483d
00000380: 5d68 d4bb b253 0b3c 52e8 973c b341 39bd
00000390: 05ec d93a fd66 38bd b3de c7bc f4d7 0dbc
000003a0: e78c dbbc ac76 0d3d 3761 e5bc 4a4e d4bd
000003b0: fd18 7ebd d33e 22bc b46a 77bc 4d10 b93c
000003c0: b254 e33c c9d3 bdbb 7e39 4bbc 8202 13bc
000003d0: b9c9 34bc b831 3bbd 9bf3 c1bb 05e2 9b3c
000003e0: d6e0 20bd 4ebd df3c 43c9 71bc 8806 92bc
000003f0: 46e2 debc 5f86 013d dbd1 8dbc 0125 6cbc
0.013312363 -0.03391361 -0.019322865 -0.031824693 -0.015778566 -0.022153495 0.022746796 0.044645812
0.004801481 0.015817834 0.022821127 -0.0034072131 0.0101469755 0.004940602 0.036766216 0.037512567
0.009056345 -0.018802477 0.026483644 0.054478887 -0.009698825 0.020908155 0.012644152 0.03900127
0.038515784 0.057308663 0.057574935 0.054143466 0.05615981 0.0042105904 0.009197292 -0.0010384541
-0.0133398315 -0.021189528 0.071678035 0.06355226 0.05718002 0.014868527 0.04290139 0.014073734
0.014663975 0.018898074 0.04752303 -0.026369294 0.0156517 -0.03550487 0.026455747 0.050919317
0.013317533 0.04478658 0.059702706 -0.022070875 0.017785763 0.017598674 0.0023604485 -0.010305272
0.0454798 0.015802478 0.06737008 0.05057776 0.010021948 -0.010478005 0.034844015 -0.011884784
-0.01205745 0.015524816 0.015311861 0.028561408 0.010995305 -0.052003022 0.025762666 0.01790327
0.015104876 0.034794092 0.013220523 -0.03796996 -0.04881529 0.00566047 0.014548266 0.04046446
0.03282587 0.028173942 -0.050519314 -0.0037332654 -0.033298343 -0.036252696 -0.033643812 0.037674077
0.0069357404 -0.033835873 -0.058727607 -0.053665895 -0.013502495 -0.039576497 0.003596663 -0.03156407
0.023289308 0.020842502 -0.004560604 -0.045705453 -0.04510482 -0.007625489 0.019086976 0.032696046
-0.040547818 -0.040971495 -0.069382474 -0.053084143 -0.07382988 -0.07399568 -0.052043077 -0.010864913
-0.02452629 0.0076792976 0.022835357 -0.05845551 -0.03378489 -0.033637367 0.0124179255 -0.023011055
0.0017593447 0.015963102 -0.013591359 -0.009982477 0.028401718 -0.012745258 0.015344761 -0.006302041
-0.0009554111 -0.046479743 0.029567048 0.038653813 0.004051053 0.014753958 -0.004244515 -0.008805223
-0.037666194 -0.031675864 -0.030450944 -0.000483298 -0.015769945 0.04726525 -0.04449313 -0.02960877
-0.001179723 0.019966677 0.05904249 0.0506294 0.011745183 0.030073322 -0.024283428 -0.038130842
0.062321946 0.026101489 0.009817194 0.013537914 0.037890986 0.06179 0.031110642 0.018109644
0.02244938 0.019275025 -0.03370032 -0.020532742 0.048535105 0.06266516 0.041503865 -0.0357752
0.034428105 0.046746284 -0.029396864 0.042532537 -0.00098445 0.06786592 0.041729905 0.011609263
0.020651478 0.014738546 0.07371538 0.058690898 -0.0024928704 0.04813318 0.03575113 0.0058755702
0.04787808 0.05625773 -0.034466233 0.057241473 0.04605382 0.040793944 0.022118619 -0.032615248
-0.012144037 -0.017993387 0.032762967 0.032537974 -0.0010642825 -0.02106164 -0.01835528 0.026834674
-0.002850736 0.004427914 0.017629571 0.03481981 -0.0011266449 0.054906648 0.05791364 0.009235957
-0.01727007 0.040597476 -0.02384093 -0.050779343 -0.04355897 -0.02900974 0.03990405 -0.0018592575
-0.0025374736 -0.03680574 0.0033101388 -0.013636916 0.010978326 -0.028109217 -0.025554514 0.049043898
-0.0064821676 0.008503841 0.018543396 -0.04522867 0.0016626125 -0.045020092 -0.024398183 -0.008657444
-0.026800586 0.034537002 -0.028000457 -0.10366495 -0.06203555 -0.009902674 -0.015101124 0.02259078
0.027750347 -0.005793069 -0.012403844 -0.008972766 -0.011034423 -0.045701712 -0.0059189326 0.019028673
-0.03927692 0.027311947 -0.014757457 -0.01782538 -0.027207505 0.031622287 -0.017311981 -0.014413119

fc1.bias f4 [32]
00000000: e7d5 fc3b 165f 52bc bc10 493d 1a22 193d
00000010: 4dc1 df3c f1a4 013d 7005 9cbb d034 8cbc
00000020: f6d8 16bc 6076 fabc 5669 e33a 9a8f 35bb
00000030: 2e23 7abd 5a41 25bd c64e 05bd f819 693d
00000040: 3aac 66bc 886f 943d 72fa ebbc 97f4 54bd
00000050: 013d 653d 6b19 253c 7cde 08bd a3a9 df39
00000060: 7c10 3cbd 4512 fabb 1c1c 9abc e3d6 5c3c
00000070: 9115 81bd 4152 4fbd 6f6d b33b c1a4 aa3c
0.007715929 -0.012840053 0.049088225 0.037386037 0.027313853 0.03165144 -0.0047613904 -0.017115027
-0.009207001 -0.030574024 0.0017350118 -0.0027704001 -0.061068706 -0.040345527 -0.032545827 0.05690953
-0.014079148 0.072478354 -0.028805945 -0.05199107 0.05596638 0.010076861 -0.033415303 0.00042660264
-0.04591416 -0.0076315724 -0.018812232 0.013478967 -0.063029416 -0.050615553 0.005475692 0.020830514

fc2.weight f4 [2, 32]
00000000: 9714 af3e 6115 6bbc ed96 ac3e e2a1 29be
00000010: 8701 8b3e fdb9 6b3e 6472 6fbe cefa 153e
00000020: 72b1 60bd 1893 1c3e daff 9bbe c39f 203e
00000030: da3f 77be 9480 a0bd 0b9a bebe 7496 363e
00000040: 3900 803e de05 9d3e 0594 ab3d 5b83 fbbc
00000050: d055 e33d bb56 3c3d 84da 17bd 2c92 dbbd
00000060: 2382 77be 4887 27be 7dde 093e dcb6 6c3e
00000070: 4b2b c9be 503b 01be cb0f f43e 84c4 963e
00000080: 7c2e a7be 1e95 31be 48ef b9be a245 0ebd
00000090: dfc0 03be a85d 42be cad6 793d 4a3c 36be
000000a0: 6b0e 09be dab8 4c3e 423d 0c3e 4b17 13bd
000000b0: eecd c33d 2a3b 473e 28c9 e43e 6b0a 19be
000000c0: 4feb 77bd 3d0b 98be c3a4 aebd e834 663e
000000d0: 28ac a0be 041c 83be ba2a 1a3e b5de 573e
000000e0: 9c51 093e 3424 893d b0b5 d2bd 3f77 1abe
000000f0: 6cf5 ad3e 87ef 243e 41af ebbe 8dd3 d1be
0.34195396 -0.014348359 0.33708897 -0.1656566 0.27149603 0.23020168 -0.2338348 0.14646456
-0.054856725 0.15290487 -0.30468637 0.15685944 -0.24145451 -0.07837024 -0.372269 0.17830831
0.2500017 0.3066854 0.08377842 -0.030702284 0.11100352 0.04598115 -0.037073627 -0.107212394
-0.24170737 -0.163602 0.13463779 0.2311663 -0.39290842 -0.12620282 0.476683 0.29446805
-0.32652652 -0.1734204 -0.3631537 -0.034734376 -0.12866543 -0.1898104 0.060995854 -0.17796436
-0.13384406 0.1999239 0.13695243 -0.035910886 0.09560762 0.19456163 0.4468472 -0.1494538
-0.060527142 -0.29696074 -0.085275196 0.2248112 -0.31381345 -0.25607312 0.15055361 0.2108105
0.13410038 0.06696358 -0.102885604 -0.15084551 0.33976305 0.16106997 -0.46032146 -0.40981713

fc2.bias f4 [2]
00000000: 0e35 da3d e62b 76be
0.10654651 -0.24040183
